feedforwardnet.pth (torch, 602702 bytes, 6 tensors)

conv1.0.weight f4 [16, 1, 3, 3]
000000 57 bd a8 bf f9 fc 83 bf 0a 82 96 bf 17 08 86 bf
       -1.3182782 -1.0311576 -1.1758435 -1.0471219
000010 1e 8c ba bf 9e fd d1 bf 04 2f 34 bf e1 5f d3 bf
       -1.457401 -1.6405523 -0.7038424 -1.6513635
000020 15 61 ca bf 4a 03 b5 be 0f f8 59 bf 51 11 25 bf
       -1.5810877 -0.35354072 -0.8514413 -0.6447955
000030 8d e7 41 bf e2 11 64 bf 24 85 63 bf e0 18 2e bf
       -0.75743943 -0.89089787 -0.8887503 -0.68006706
000040 74 7d 66 bf 60 82 28 bf 56 14 11 be 1f 43 89 be
       -0.90035176 -0.65823936 -0.14167914 -0.26809022
000050 0f 37 42 3e 10 e4 65 3e a5 f4 ae bd f1 c6 6b 3e
       0.18966316 0.2245028 -0.08542756 0.23025109
000060 78 93 58 3d 0c 52 96 be f6 bf 42 be 9d a9 6c 3e
       0.052875012 -0.29359472 -0.1901854 0.23111577
000070 a4 5d 81 be ed 1a a1 3e b8 89 40 3e b5 44 47 3e
       -0.25266755 0.31465855 0.18802536 0.19459803
000080 d4 77 18 3e 0a 2d 18 3e 4f a4 63 bb 60 4b a0 bd
       0.14889461 0.14860931 -0.0034735387 -0.07826877
000090 77 01 a3 3e 5f 07 93 3b b2 57 f0 3b d1 c5 09 be
       0.31837055 0.0044869627 0.007334673 -0.13454367
0000a0 d5 bc 2b 3e de 0c 71 be 43 f4 d6 3d b0 d4 a2 bc
       0.16771252 -0.23540065 0.10495808 -0.019876808
0000b0 8b fa 98 3e 6e 80 d7 be 0c a4 61 bf 15 75 37 bf
       0.2987865 -0.42090172 -0.8814094 -0.7166303
0000c0 6b cb 6f bc 98 77 a4 be 4e 36 bf be a0 5c 31 3e
       -0.014635901 -0.32122493 -0.3734612 0.1732049
0000d0 f2 97 48 be d1 e9 2b 3e 46 38 88 3e 25 70 36 be
       -0.19589213 0.16788413 0.26605433 -0.17816217
0000e0 3e b7 5e 3e ad 71 b2 be e8 25 65 be b5 e4 6a 3e
       0.21749589 -0.34852353 -0.22377741 0.22938807
0000f0 ff a3 8e 3d d3 73 51 bd dc c5 b1 bd 30 59 8c be
       0.069648735 -0.05113585 -0.08680317 -0.27411795
000100 dd 55 38 be 18 52 bb 3e e4 3e db 3c 34 b8 cd 3d
       -0.18001504 0.3658607 0.026763387 0.100448996
000110 83 76 a0 3e 56 b1 3f 3e d9 a2 04 be a5 05 3a bc
       0.31340417 0.18719992 -0.12952746 -0.011353885
000120 2f 6c 8c 3e 74 7f 4c 3e 9e d0 39 3e 4c 32 a5 bd
       0.27426288 0.19970495 0.18145987 -0.08066234
000130 65 cf 63 3e 3d 18 b2 3e 57 3f c4 be 22 1c c5 be
       0.22247083 0.34784117 -0.38329574 -0.38498026
000140 69 40 9b be 26 e8 30 be c4 d2 30 be 58 16 b2 3e
       -0.3032258 -0.17276058 -0.172679 0.34782672
000150 dd ff 51 be 7d ce bb 3d 01 d0 e3 3d 65 8f 1a be
       -0.2050776 0.09170244 0.11123658 -0.15093763
000160 8a be 5e 3e 54 b2 a8 bd 34 00 59 be c4 7a 22 be
       0.21752372 -0.082371384 -0.21191484 -0.15867144
000170 2b 66 c7 3e cb 47 ac 3e e9 23 60 be 00 cf f8 bd
       0.38945135 0.33648524 -0.21888699 -0.12148857
000180 59 3a 04 3e 16 7a a6 be 54 99 4e 3e e9 05 74 3e
       0.12912883 -0.3251502 0.20175678 0.2383038
000190 ef ca a6 be 28 91 eb bd 2c 67 05 bc 91 f9 36 bd
       -0.325767 -0.11502296 -0.008142274 -0.0446716
0001a0 f7 f0 a6 3e f7 40 90 be 0a 2a 9a 3e dd af 40 be
       0.32605717 -0.28174564 0.30110198 -0.18817087
0001b0 e0 aa 56 be 7c b5 d3 3d 05 9c b2 3e af f2 7c be
       -0.20963621 0.1033735 0.34884658 -0.24701951
0001c0 0d 0e a0 3d b5 a5 67 3d 77 5d e9 be fc c3 89 be
       0.0781518 0.056554515 -0.4557912 -0.26907337
0001d0 ae 6a 10 be 1a dc 29 3e a2 a5 b1 be b5 6c 23 be
       -0.14103195 0.16587868 -0.3469668 -0.15959437
0001e0 ae 6c 22 3e b2 00 8b be bc 67 13 bd b4 44 1d be
       0.1586177 -0.27148968 -0.0359876 -0.1535824
0001f0 7b c9 ae 3e 51 92 0b 3e e0 9a 02 3e fb fa 9a be
       0.34138092 0.13630034 0.12754393 -0.30269608
000200 ac af 8a 3e 4d d9 0a 3e 93 b4 92 be bf 74 17 3e
       0.27087152 0.13559456 -0.28653392 0.14790629
000210 08 d4 3a 3e a0 f2 63 be 21 67 62 3e e3 bb 0a 3e
       0.18244946 -0.22260523 0.22109653 0.13548236
000220 af ef 90 3e fe c9 9c 3c e8 75 2e be 35 1e 22 3e
       0.28307864 0.019139286 -0.17037165 0.15831836
000230 47 52 1b 3c 7a ce e5 bb 9f 2f 92 3e af d7 b6 bc
       0.009480066 -0.0070131393 0.28551957 -0.022319643

conv1.0.bias f4 [16]
000000 bc 2f f7 3d b4 f9 a8 3e 3b 18 42 bf 10 a3 fb 3b
       0.120696515 0.33003008 -0.7581822 0.0076793507
000010 93 d8 02 3d c3 f8 44 3e 0d 1f 14 bf b9 96 f7 3a
       0.031944823 0.1923552 -0.5785988 0.0018889523
000020 f2 fc a1 bc e6 bc 4a 3d ca 7c 4b 3d f7 17 c1 be
       -0.019773934 0.049496554 0.049679555 -0.37713596
000030 5b 36 16 3c a3 f6 14 bf 38 e4 bd 3e 43 a0 1b bf
       0.009168233 -0.5818884 0.3708818 -0.60791415

conv2.0.weight f4 [32, 16, 3, 3]
000000 b1 a4 b7 bc 50 6c 16 3d cc f3 96 bc 9e 45 8d bd
       -0.022417398 0.03672439 -0.018426798 -0.06898044
000010 2b d2 9a bd 82 be 62 bd ef 47 0e bd 74 f5 90 3d
       -0.075596176 -0.055357464 -0.03473657 0.070780665
000020 38 c2 85 bc 77 2b a1 bd 4e 54 f8 bb 1d 9d bf bd
       -0.016327962 -0.078696184 -0.0075784093 -0.09356139
000030 44 74 35 be f7 22 14 be 23 a8 34 be 05 06 b1 3d
       -0.17720133 -0.14466463 -0.17642264 0.08643726
000040 c7 44 97 3d 10 21 ca 3d c0 d2 94 bd 1b 79 cc bd
       0.07386165 0.098695874 -0.0726676 -0.099840365
000050 76 36 28 bd f7 a1 4e bb 3b a6 aa bd 91 15 03 bc
       -0.041067563 -0.0031529644 -0.08332487 -0.008000747
000060 38 49 e8 bd ed 80 b3 bd f5 68 9b 3c 36 07 52 3d
       -0.1134209 -0.08764825 0.018970946 0.051276408
000070 86 b3 12 3c f8 5b 84 3d ee b7 8a 3d 30 0c 93 bd
       0.008953935 0.06462854 0.06773363 -0.07180059
000080 ad 28 aa 3d ba b9 22 bd de c3 9a bd 07 d5 fa bd
       0.083085395 -0.039727904 -0.0755689 -0.12247663
000090 4a 6e 8f 3d 81 3f 83 bd 8b 23 cd 3c 7d 93 20 3d
       0.07003458 -0.06408597 0.025041362 0.039203156
0000a0 75 fe c2 bd 8b 84 bc bd 11 33 8b bd 82 97 d8 3c
       -0.0952119 -0.09204968 -0.067968495 0.026439432
0000b0 62 a8 44 3c 3c c9 df bd 59 f3 72 bd eb cd 39 be
       0.012003036 -0.10927054 -0.059314106 -0.18144958
0000c0 88 03 a1 bd 8f 32 45 bd 8f ec 01 be 54 6d 59 3d
       -0.07862002 -0.04814392 -0.12687896 0.05308278
0000d0 2e 9c 41 3a eb fd d6 3c c8 62 1f bd 31 56 aa bd
       0.00073856383 0.026244124 -0.038912565 -0.08317221
0000e0 e1 f4 9d bd 6d 95 05 be b1 8a 7a bc 3d a7 93 3a
       -0.077127226 -0.13045283 -0.015291856 0.0011265051
0000f0 67 db 5f 3d da 9e 65 bd fc c0 8f bd 3c a3 39 bd
       0.054652598 -0.056059696 -0.07019231 -0.045321688
000100 fd 6a 79 3d bc 48 38 3d 7c 7b bb bb 2c 7d 3b 3c
       0.060893048 0.04499124 -0.0057215076 0.0114434175
000110 48 ba 8b 3d 92 6f c2 bd 78 bc d6 bd e6 fa 4b be
       0.0682264 -0.094939366 -0.10485166 -0.19919929
000120 7c e1 38 bd 8c 93 f9 ba a6 08 af bd 3f f6 11 bc
       -0.045136914 -0.0019041165 -0.085465714 -0.008908807
000130 da 4f 96 bd f9 ae d4 bc 1d 0d a2 bd e1 17 b0 bd
       -0.07339449 -0.02596234 -0.079126574 -0.085983045
000140 6a 29 68 bd 27 5c 08 bd a9 00 0d 3e 79 88 a6 3d
       -0.05668012 -0.03329101 0.13769783 0.08131499
000150 7f a1 ce 3c 1f c3 cc 3d 6d b9 8e 3d 6b 09 e6 bc
       0.025223492 0.09998154 0.06968961 -0.028080663
000160 cd ea 83 3c 4a 0e 47 bd bf d1 bb bd f2 a8 53 3c
       0.016103173 -0.04859761 -0.09170865 0.012918698
000170 0b 1f 3b bd 8f 6c f3 3c b2 91 21 3d fb a4 b5 bc
       -0.0456839 0.02971485 0.039445587 -0.022173395
000180 ac e7 a2 bd af bd 43 bd 94 c4 f0 bc e3 65 5c bc
       -0.07954344 -0.04778832 -0.02939061 -0.013452026
000190 55 95 b5 bd 06 5e 50 bc 16 60 78 3d 1f 39 59 bd
       -0.088663734 -0.012717729 0.06063851 -0.05303299
0001a0 0d 42 c8 bd 88 9f 0e ba 60 13 80 bd ad 79 4d bc
       -0.09778223 -0.0005440642 -0.062536955 -0.012541217
0001b0 8c d6 a5 bd 41 90 05 bc 6a e5 ac bd 41 e6 a1 bc
       -0.08097562 -0.008152069 -0.08442195 -0.019763114
0001c0 e0 40 56 3c b9 b9 0b 3d d2 ba b8 3d 08 87 ef 3d
       0.013076991 0.034112666 0.09020008 0.11695677
0001d0 9d 48 9a 3d 58 25 59 3c 73 06 1f bd 13 75 b4 3c
       0.07533381 0.013253532 -0.03882451 0.022028482
0001e0 cb 3f 84 bd 96 b8 92 bd 90 30 97 bd 61 40 78 3c
       -0.0645748 -0.07164113 -0.073823094 0.015152068
0001f0 b9 d7 9d bd 0e 7f 4e bd a0 42 c7 3d 9f ae b8 3d
       -0.077071615 -0.050414138 0.097295046 0.09017681
000200 e3 d1 0c 3d 9e 93 0b bd 46 de d5 3d f7 9f 00 3d
       0.03437985 -0.034076326 0.10442786 0.031402554
000210 2b ee 84 3c ea 36 27 bd 98 b7 6a bd 46 07 5a bb
       0.016226849 -0.040823855 -0.057303995 -0.0033268495
000220 13 29 3e bc 03 2e 19 3d 91 c6 e2 bd 20 7b e9 bd
       -0.011606473 0.037397396 -0.1107303 -0.11400437
000230 be 6c 8e bd ed 7d bf ba 44 38 9e bc 98 ae b7 bd
       -0.06954335 -0.0014609672 -0.019313939 -0.08968848
000240 ac f2 57 be 78 3c 89 be fa f5 49 be 6a 08 b6 bd
       -0.21088666 -0.26803946 -0.19722739 -0.088883236
000250 f4 c1 ae bd ba 8a d0 bd 10 bf 43 3d ea ea 3c 3d
       -0.085330874 -0.1018271 0.047789633 0.04612247
000260 e5 4d 17 3d e0 f7 5d be d0 ff 8c be 8e 2c 30 be
       0.03693952 -0.21676588 -0.2753892 -0.17204496
000270 3f bb ae bd e6 54 8c bb ea fa 62 3d 16 d1 09 3e
       -0.08531808 -0.0042825816 0.05541507 0.13458666
000280 a8 44 be 3d 6f af f5 3d 62 89 3c bd 1c 7e 32 bd
       0.09290439 0.11996352 -0.046029456 -0.0435773
000290 c2 1d 21 bd f6 16 a4 bc e7 a4 a1 3d 97 22 07 bd
       -0.03933502 -0.02003048 0.07892781 -0.03299197
0002a0 8e b6 b2 bd c9 2e 28 bd 60 74 66 bd 20 86 2c 3d
       -0.08726226 -0.041060243 -0.056263328 0.0421201
0002b0 e1 0c 10 3c 13 51 8d 3d f6 60 ae bd 4f d9 4a bd
       0.008792133 0.06900229 -0.085145876 -0.049523648
0002c0 70 6d 2a 3d d9 31 20 be 8f ad 12 be 67 21 06 be
       0.041608274 -0.15644015 -0.1432402 -0.1309868
0002d0 86 23 a3 3d a7 2f 2b bd f2 3b e0 3d 5f af 96 bd
       0.0796576 -0.04179349 0.10948934 -0.07357668
0002e0 c2 02 87 3c 20 c3 af 3d 30 99 0a bc e2 05 ab bb
       0.016480807 0.08582139 -0.008459374 -0.005219207
0002f0 10 04 42 bd 35 0a c7 bd 93 17 e1 bc 9a d2 36 be
       -0.047367156 -0.09718744 -0.027477061 -0.17853776
000300 da d5 b8 bd 9e cd 20 bd 5b b6 e4 bc 66 37 9a 3d
       -0.09025164 -0.03925859 -0.027918985 0.07530098
000310 33 76 4c 3d e3 bc 04 3d fd dd 48 3d 84 8a 98 bd
       0.04991741 0.0324067 0.04903983 -0.07448295
000320 15 97 53 bd 65 e3 0c bd e3 dd bf bc 37 98 85 3b
       -0.051657755 -0.034396548 -0.023421234 0.0040769833
000330 75 69 c9 3c d4 5f d8 bb d8 20 92 3d cf 4c 6c 3d
       0.024586419 -0.0066032205 0.07135171 0.057690438
000340 4c 36 2f 3d 81 c0 5a bd 7c f5 e1 bd 93 0f a1 bd
       0.04277639 -0.053406242 -0.110331506 -0.07864299
000350 01 24 a7 3d 1e 92 24 be d3 10 54 bd fd af bb bd
       0.08161164 -0.16071364 -0.051773857 -0.091644265
000360 50 b0 c8 3c d1 69 35 3d b6 9f 2a bb 9b 27 94 bd
       0.024498135 0.044290368 -0.0026035137 -0.07234117
000370 2c 10 59 3d 71 f5 c3 3d ff 9f 1c be 3e fe 1d be
       0.05299394 0.095682986 -0.15295409 -0.15429017
000380 9b 2d 79 bd 90 f8 7f 3d 72 b8 a6 3d 0d 5d cb 3d
       -0.06083451 0.062492907 0.08140649 0.099298574
000390 02 ea 95 3c c4 73 44 3d ae a6 00 3e f8 61 7d bc
       0.01830006 0.047961965 0.12563583 -0.015465252
0003a0 5f 9a 83 bd f2 b2 6b bd 3a 7e cd 3c 89 cc af 3d
       -0.06425928 -0.057543702 0.025084604 0.08583934
0003b0 fa 10 7c 3c 16 25 0c bd 82 04 19 3e 1e 89 0f 3e
       0.015384907 -0.034215055 0.14943126 0.1401715
0003c0 fa c1 a4 bd b2 89 94 bd c3 db bc bd a9 5f c1 3d
       -0.080448106 -0.07252826 -0.09221604 0.09442074
0003d0 6f 26 9d bc 9b b8 95 bd 9e 6b cc bc d2 8b 82 bd
       -0.019183366 -0.07310601 -0.02495366 -0.06374325
0003e0 cc ff 9b 3d d6 2e 8b bd 64 9d 4b bd f1 38 25 bc
       0.07617149 -0.067960426 -0.049710646 -0.010084377
0003f0 e6 12 58 bd de 19 a8 bd 51 9f 8d 3c 7a 48 31 bd
       -0.052752398 -0.08208059 0.017287882 -0.04328201

conv2.0.bias f4 [32]
000000 ce c0 dc 3d 23 51 2f 3d 52 db fe b9 d3 e7 11 bd
       0.10778962 0.042801987 -0.00048610062 -0.035621475
000010 13 e0 9e 3d 64 0c 1c 3d b8 ee d0 3d 89 da aa 3c
       0.077575825 0.038097754 0.10201782 0.020856159
000020 4a 2e 6e 3d 10 49 68 3c bd f5 e2 3d 29 c5 91 3c
       0.058149613 0.014177576 0.11082027 0.017794209
000030 c3 94 b3 3d 69 6e 04 bc f5 1e 31 3c bb fb 9b 3d
       0.087686084 -0.008082964 0.010810603 0.07616373
000040 50 79 af 3d a1 ac 5d 38 50 5e b8 37 b0 7d f5 ba
       0.085680604 5.285128e-05 2.1978427e-05 -0.0018729474
000050 6d 36 90 bd fe e7 be 3d eb cd c8 3d c5 37 3d 3d
       -0.07041631 0.09321593 0.09804901 0.046195764
000060 c0 26 f3 3d ed 71 5c 3d 7a 73 55 3c 4a 64 fe 3d
       0.11872625 0.053819586 0.01302802 0.12421472
000070 31 e2 08 bd b0 52 c1 3d dd 37 ce 3d f2 74 2f bd
       -0.033418838 0.094395995 0.10069249 -0.042836137

linear.weight f4 [14, 10368]
000000 4a 2d 8e ba 6b 15 a6 bc fa e3 88 bd 0f 8b f6 bd
       -0.0010847237 -0.020273885 -0.06684108 -0.12038242
000010 1e 5e 05 be cd f7 f4 bd 2c ee a3 bd 69 a9 99 bd
       -0.13024184 -0.11961327 -0.08004412 -0.075030155
000020 a1 41 9f bd 30 f3 82 bd d5 81 67 bd e9 9b 7c bd
       -0.077761896 -0.063940406 -0.0565203 -0.061672125
000030 74 2c 2e bd 28 76 2e bd ec 1c 3e bd 7e 30 54 bd
       -0.042522863 -0.04259315 -0.0464143 -0.05180406
000040 20 75 4b bd 62 a0 1b bd 09 b5 0c bd ad 8f 06 bd
       -0.049672246 -0.03799475 -0.034352336 -0.032851864
000050 24 fd ca bc 1f 28 00 bd b9 17 b4 bc be fd c2 bc
       -0.02477891 -0.031288262 -0.021983968 -0.023802634
000060 17 fb f5 bc 35 54 f4 bc bb 9c 15 bd 29 fb ea bc
       -0.030026956 -0.02982531 -0.036526423 -0.028684216
000070 04 ff 8c bc ad 8b e9 bc c9 0b b0 bc b7 7e 5f bc
       -0.017211445 -0.028508985 -0.021489995 -0.013641051
000080 9e 5a 86 bc 44 6c 1c bc 0c cc 59 3b 1e ae df 3b
       -0.016400632 -0.009547297 0.0033233194 0.0068261763
000090 76 59 ba 3c 0b c4 1a 3c d0 a0 f5 3c 7d a7 0d ba
       0.022747736 0.009446154 0.029983908 -0.0005403681
0000a0 c7 9e eb bc 77 5d 3e bd 6f 23 78 bd 11 5c 8c bd
       -0.028762234 -0.046475854 -0.060580667 -0.06853498
0000b0 85 cb 4a bd 9d e0 85 bd 42 3e 84 bd 65 b1 9f bd
       -0.049510498 -0.06536982 -0.06457187 -0.07797507
0000c0 c1 5c 8a bd 8c f9 97 bd 70 c9 a6 bd bb de a1 bd
       -0.06755973 -0.07420644 -0.0814389 -0.079038106
0000d0 d8 1e 87 bd f0 6f 98 bd be b3 80 bd dd 9d a2 bd
       -0.0659768 -0.074432254 -0.06284283 -0.07940266
0000e0 7b 9b 87 bd 36 06 8e bd d0 05 89 bd e5 24 75 bd
       -0.066214524 -0.069347784 -0.06690562 -0.05984964
0000f0 1c 5b 3f bd f4 0c 52 bd b4 42 6a bd 26 7a 5a bd
       -0.046717748 -0.051281884 -0.05719252 -0.053339146
000100 1f fd 31 bd d9 ab 74 bd 85 d9 35 bd 15 75 60 bd
       -0.043454286 -0.0597342 -0.044396896 -0.054799158
000110 2a f4 50 bd ba 58 6f bd e8 cc 8d bd d6 b3 a6 bc
       -0.051014103 -0.058434226 -0.069238484 -0.020349424
000120 a7 15 9a 3b 3a bf 3c 3c e4 82 1c 3d 18 3c f9 3c
       0.004702288 0.011520201 0.038210765 0.030424163
000130 41 e5 2b 3d 6c 5d 20 3d c2 26 ed 3c 04 c6 cd 3c
       0.04196668 0.039151594 0.028949145 0.025118835
000140 bc 9e ca 3c 38 22 c7 3c 03 5f a8 3c 10 0b 09 3d
       0.024733894 0.024308309 0.020553118 0.033457816
000150 d1 4b bd 3c 3a df a8 3c 2f 41 a3 3c 81 62 5c 3c
       0.023107441 0.020614255 0.019928543 0.01345122
000160 5e cb aa 3c 18 6f ad bb 17 e4 b3 3b ed 86 86 3c
       0.020848926 -0.0052927844 0.005489837 0.01642176
000170 5b 8b 2d 3c 76 a2 b4 3b 9c 34 05 3c e6 61 5a 3c
       0.010592307 0.005512531 0.008130219 0.013329005
000180 87 1e ad 3c ed 83 48 3c 6e 09 63 3c 5e 65 5b 3c
       0.02113272 0.012238485 0.013857229 0.013390867
000190 f1 af 0b 3c a6 1e 0e 3c 26 08 54 3b d3 1a 41 3b
       0.008525834 0.008674299 0.003235349 0.0029465451
0001a0 ba 1b 97 ba 79 e9 41 bc e5 a6 6a bb 11 41 4a 3c
       -0.0011528649 -0.011835449 -0.0035805043 0.012344615
0001b0 38 ce c7 bc bf 5f 48 bb 49 28 98 3c 18 ce 8a 3c
       -0.024390325 -0.0030574647 0.018573897 0.016943976
0001c0 0a 0f 6f 3b 6f 28 5f 3c 03 63 f9 3b 91 f1 95 3b
       0.003647747 0.01362048 0.00761068 0.004575916
0001d0 70 10 72 39 2a 66 a9 3a c2 70 42 3c 4e bf c3 ba
       0.00023085042 0.0012924124 0.011867704 -0.0014934333
0001e0 92 10 27 bc 65 70 98 ba 0d d1 a9 bb 8a a2 9b 3a
       -0.010196822 -0.0011630176 -0.0051823915 0.0011874002
0001f0 e5 1b b2 bb 57 ec 8b bc ed f9 dc bb e4 cc f1 3b
       -0.005435454 -0.017080469 -0.0067436607 0.007379161
000200 8f 8f 4c bb 84 6e 20 3c f5 8b 83 3b 3d 27 4b bb
       -0.0031213497 0.009791974 0.004014487 -0.003099873
000210 94 1f 2b 3c 72 93 a4 ba d5 04 45 ba 32 c6 ca bb
       0.0104445405 -0.0012556149 -0.00075156736 -0.0061881775
000220 56 02 26 bc 9c b8 24 bc e5 4f 81 bc 2f 67 a3 bc
       -0.010132393 -0.01005378 -0.015785167 -0.019946663
000230 14 d3 c7 bb fa b9 40 bc ff dd 88 bc 30 ea dd bc
       -0.0060981605 -0.01176309 -0.016707418 -0.027089208
000240 ab 7d ab bc da 91 42 bc fd e9 41 bc bc cb 0f bc
       -0.020933947 -0.011875594 -0.011835572 -0.008776601
000250 e9 7b 38 bb e6 16 7b bb 28 01 12 bb 1c d5 f0 ba
       -0.0028150028 -0.003831321 -0.0022278521 -0.0018374058
000260 25 5c 76 3a 5a fb 6f 3c 20 80 8f 3b 4f ed fa 3b
       0.0009397886 0.014647329 0.0043792874 0.007657684
000270 82 b5 09 3c c6 5a c2 3b a3 c1 98 bb c0 50 6f 3c
       0.008405091 0.005931231 -0.004661755 0.014606655
000280 81 8b 5b ba ff 02 05 3c e0 07 13 bb 64 75 bf ba
       -0.0008374975 0.00811839 -0.0022435114 -0.0014607129
000290 cd 66 ff 3b 67 99 b7 3b 51 4c 0c bb c1 e5 9c 3b
       0.007794237 0.005603004 -0.0021407793 0.004788131
0002a0 b0 31 6c 3c 01 b0 a9 bb db 9f 70 bb 61 63 bd 3b
       0.014416143 -0.005178452 -0.0036716375 0.005779669
0002b0 78 85 09 3c 14 a6 62 ba 4b 18 ff ba 47 6b ab bb
       0.008393638 -0.00086459634 -0.0019462196 -0.0052312943
0002c0 0b b2 92 3b 87 a2 fd bb ae 70 ad bb 67 06 17 bd
       0.004476791 -0.007740322 -0.0052929735 -0.03687134
0002d0 37 07 89 bc 78 0e 64 bc 1b 16 90 bc 0e dc 80 bc
       -0.016727073 -0.013919465 -0.017588666 -0.01572993
0002e0 68 6c ba bc 23 bf d9 bc a6 2a 0b bc 84 fc 85 bc
       -0.02275677 -0.026580399 -0.008494055 -0.01635576
0002f0 50 0d 57 bc 2d 73 96 bc e0 d1 03 bc 18 a8 84 bc
       -0.013125733 -0.018365467 -0.008045644 -0.016193435
000300 38 18 a1 bc e4 3a 98 bc df 57 59 bc a1 28 b7 bc
       -0.019664869 -0.018582769 -0.013265579 -0.02235824
000310 84 bd 7d bc 65 70 94 bc 7d 5e b3 bc 3c a6 8a bc
       -0.015487079 -0.01812 -0.021895641 -0.01692497
000320 c5 f5 1f bc 2a c5 13 bc 7c f0 a2 bc 7d 14 06 bc
       -0.009763186 -0.009019176 -0.019890063 -0.008183596
000330 e0 ff 60 bc c6 b9 60 bc 42 7d bb bc fb 79 53 bc
       -0.01373288 -0.013716167 -0.022886876 -0.0129075
000340 20 45 19 bc 24 f6 e0 bc 2a dd 17 bc b0 f7 e6 bc
       -0.00935486 -0.027461119 -0.009269038 -0.028194278
000350 ff 12 6b bc 1f ab d8 bc 5d c2 66 bc cb ba eb bc
       -0.014347791 -0.026448784 -0.014084426 -0.028775593
000360 2b ed ad bc 53 72 05 bc 8b 81 1d bc e2 29 91 bc
       -0.021231255 -0.008144933 -0.009613405 -0.017720167
000370 d2 d2 38 bc fa 64 ac bc 9e 7b 85 bc a8 40 8f bc
       -0.011280732 -0.021044243 -0.016294297 -0.017486885
000380 1d af 9c bb e1 7f 2d bc 81 5b 36 bc 88 d2 fc bb
       -0.0047816173 -0.010589571 -0.011130215 -0.007715527
000390 8f ae 49 bc 32 cf 8f bb e7 50 bb bc 13 f8 86 bc
       -0.012309684 -0.0043887133 -0.022865726 -0.016475713
0003a0 b6 ad 67 bc 8b 7c b8 bc 8a 22 1b bc 4f 0d 8a bc
       -0.014140537 -0.022520324 -0.009468684 -0.01685205
0003b0 2e 8b d6 bb 9e 5c 6e bc 7f 1a 84 bc 13 44 e6 bb
       -0.006547353 -0.014548449 -0.016125916 -0.007027158
0003c0 14 f9 d2 bb 8a 8d aa bc dc 22 68 bc 66 fb cb bc
       -0.006438384 -0.020819444 -0.014168467 -0.02490015
0003d0 ef 41 09 bc 62 3b 9f bc 6a 14 17 bc 53 28 19 bc
       -0.008377536 -0.019437496 -0.009221176 -0.009347993
0003e0 14 11 2a bc 00 db 5e bc ef 25 a8 bc 9a cb 91 bc
       -0.010380048 -0.013602018 -0.0205259 -0.01779728
0003f0 94 22 1f bc 94 80 5f bc 09 9b 8a bb 3e 4f 15 bc
       -0.009712834 -0.013641495 -0.0042299074 -0.009113131

linear.bias f4 [14]
000000 d1 3e 70 bc ea e5 3f bb f0 3c 7b bc ad 83 8d 3c
       -0.014663414 -0.0029281327 -0.015334353 0.017274702
000010 cf d6 24 3c 9b 45 fa 3b fd 43 2a 3b e6 0f 68 bb
       0.01006098 0.007637692 0.0025980466 -0.0035409867
000020 10 62 90 b9 86 80 5a 3a 94 0d ac bc ef 19 43 bc
       -0.00027538883 0.00083351915 -0.021002568 -0.0119080385
000030 74 f0 dc bc f6 df 69 bc
       -0.026970126 -0.014274588
