pseudo_model.pth (torch, 602682 bytes, 6 tensors)

conv1.0.weight f4 [16, 1, 3, 3]
00000000: 73dd 1c3e 0422 70be 570e 04be 848a 94be
00000010: 0f5c d2bd e283 d53e 8ebe ebbc 19a1 7bbe
00000020: 58e8 953e 25c9 613e c12d adbc 7b0a 97be
00000030: b6d4 843e 5bbd 4dbe fbd3 8b3e 235d c13d
00000040: e301 28be 3b78 9cbe db83 2b3e dd2a 8d3e
00000050: 0631 8c3c eaa2 b1be 3286 bf3e 0efc a73e
00000060: 5097 28be 1bca a5be 4900 af3e 95eb 80be
00000070: ccf0 b2be b0ee e03e 5ac2 f5bd b36f 93be
00000080: 9bcf 893e 02ff 153e 5725 313e 7ed0 7abe
00000090: 3fa4 a93e d789 b83d 7252 b83e d4f8 023e
000000a0: 7cd4 653e 996a 72be 28ce 433e 9f51 803e
000000b0: 2419 ac3d da6f a2bd 4d7f a03e 6a89 79be
000000c0: 1277 2cbe 8dc3 413e 152c a63e 5045 0bbe
000000d0: 34f9 333d 7e0d 46bd 48ca a73e 4fc4 ff3d
000000e0: dc3a a5be bb2a 833e e588 64be 172c 83be
000000f0: 21ab 783e 75e5 013e 09c6 e33d 9f11 96be
00000100: 425f 813e 55a5 88be c428 6cbe dcb3 bcbe
00000110: 5846 9a3d 0ca8 8e3e c391 4e3e d44c 873e
00000120: f69a cebd f508 473e 54d1 cebd 0037 99be
00000130: a246 64bd 176b f2bd 5772 81bd f1c3 0fbe
00000140: 80c9 45be 122b 8fbc 8a4c 5bbe e3c1 16be
00000150: 376e a5bd ffb2 ce3d 0e09 26be 33c1 86be
00000160: 93e1 a1be d458 8bbe 72ae 853e cf45 7b3e
00000170: f7f0 f43c 7ea3 cb3d cf63 5e3e 9b0a 903e
00000180: 1fbc 22be 9a85 aabe 5980 a4bd 2a90 593e
00000190: 22b9 d0bd 151d a93e c874 91be d0da e8bd
000001a0: 620a 2e3e 30e6 323e 5884 643c 765a d3bd
000001b0: e28b ca3d e0af fd3d 670b a33e f6e2 e1bd
000001c0: 9c7e 33bd d21b 4f3e 7b59 12be 5f30 b4be
000001d0: 70b2 edbe d738 e93d 9a5a 16be 6ddc 743d
000001e0: a39f 89bd d0f3 8f3e 123b d13d 1a9e 803e
000001f0: 6b28 c4be 9eec acbe b06f f1bd f4bb 983e
00000200: 2218 6fbd d0be 39be 7b35 6bbe 0c71 d63d
00000210: ff3b 29be db4f c23e efc1 95be 918c 51be
00000220: f920 a23d 632e 093e 3ab9 7fbd c50e 39be
00000230: 5fee afbe 42b5 bdbe ee87 a5be 1c10 64be
0.15318851 -0.23450476 -0.12896095 -0.2901193 -0.10271465 0.4170218 -0.028777387 -0.24573173
0.29278827 0.22049387 -0.021139981 -0.29500183 0.25943536 -0.20091765 0.27310166 0.094415925
-0.1640697 -0.3056048 0.16749518 0.27571765 0.01711322 -0.34694606 0.3740707 0.3280949
-0.16463971 -0.32380757 0.34179905 -0.25179735 -0.34949338 0.43932104 -0.1199996 -0.28796157
0.26916203 0.14648059 0.172994 -0.24493596 0.33133122 0.09010666 0.360004 0.12790233
0.22444338 -0.23673476 0.19121611 0.25062272 0.08403233 -0.0793149 0.31347123 -0.24368826
-0.16842297 0.18922253 0.32455507 -0.1360066 0.04393883 -0.04835271 0.32771516 0.12488615
-0.3227147 0.25618538 -0.22317846 -0.25619575 0.2428403 0.12685187 0.111217566 -0.2931032
0.25267988 -0.26688638 -0.23062426 -0.36855972 0.07532948 0.27862585 0.20172791 0.26425803
-0.1008815 0.1943701 -0.1009852 -0.29924774 -0.055731423 -0.11836832 -0.06320637 -0.1403959
-0.19315147 -0.017476592 -0.21415916 -0.147224 -0.080776624 0.100927345 -0.16214392 -0.26319274
-0.31617412 -0.27216208 0.26109654 0.24538349 0.029900057 0.09943293 0.21717761 0.2813309
-0.15892075 -0.33305055 -0.08032293 0.212464 -0.10191561 0.3303 -0.2840941 -0.1136986
0.16996148 0.17470622 0.013947569 -0.103199884 0.09889962 0.12387061 0.31844637 -0.110296175
-0.043821916 0.20225456 -0.14291947 -0.35193154 -0.464252 0.113877945 -0.14682999 0.059780527
-0.067199014 0.28115702 0.10216345 0.25120622 -0.38312086 -0.33774275 -0.11788881 0.29830897
-0.058372624 -0.18139195 -0.2296962 0.10470781 -0.16526793 0.3795155 -0.29249522 -0.20463778
0.07916445 0.13396601 -0.062432505 -0.1807204 -0.3436155 -0.3705235 -0.3233027 -0.2227177

conv1.0.bias f4 [16]
00000000: 58f8 5cbc fd8f ab3d e0ba 23bf 1ebc 2c3e
00000010: ce2d 28be e0ed e53d 05c3 7cbe f1de 083d
00000020: bc73 3c3d f7ba d5bd 0f09 13bf dc24 e63c
00000030: 6401 6b3d 1d71 233e 5876 87bd ccc4 943d
-0.013486944 0.08377073 -0.63957024 0.16868636 -0.16423723 0.11227012 -0.24683769 0.03341574
0.04600881 -0.10436051 -0.574357 0.028093748 0.057374373 0.15961118 -0.06614369 0.072640985

conv2.0.weight f4 [32, 16, 3, 3]
00000000: 82ec aabd db12 0ebe 1f5b afbd 97e9 5c3e
00000010: 2ecb cbbd 875a 1f3d 8bc2 5f3e cf58 7ebd
00000020: 19d9 f03d d559 93bd cb89 4cbd 61cc 99bd
00000030: 8cbe 6c3d 041f 18bd f608 7d3d 44dc 85bd
00000040: 0355 d93c e0dc 3abd fc3d 00be 4b96 1dbe
00000050: bb88 113d 2aec 483d ffe8 35be 6449 17bd
00000060: a6a0 ad3d 4951 173c fee7 50bd 29b0 77bd
00000070: 41ed eebc 3e2d c2bd fcaa 633d d68d 24bc
00000080: 9952 88bd d2dd 503e dc71 4bbd 8a2b 0b3c
00000090: c1f2 033d 9efe 0a3d 9e2b 263e e7dc 84bd
000000a0: 4e37 393d fbb2 873d b1fc b9bd e235 a0bd
000000b0: b5fd 11bd 9dce cb3d d730 e83b 529b 2cbd
000000c0: 44ba 343d be46 93ba 9abd 1ebb 9f75 cbbd
000000d0: d6c0 853d aaa1 5ebd e8b6 e2bd 57c4 ac3c
000000e0: a495 62bc 3723 3bbd a9ab 3e3c ad11 b83d
000000f0: 8764 123d ae58 cabd 8728 ad3d 2ee2 87bd
00000100: ec43 37be 3483 06be d39f 93bd 1b7b 353d
00000110: 23d9 cdbd 1904 133e 288e ddbd 1c90 013d
00000120: c891 bfbd a53c 1cbe 28c2 e7bc 0133 bebd
00000130: 5332 9abd f1b9 39be 6b8a 623d e29d 44bc
00000140: 31ee 83bc b9e0 72bd 8cc3 813c 567e 7b3d
00000150: e350 a0bd 3263 2c3d 74b5 a33c da2a 883c
00000160: 9a3b 2c3d 681c 20bc f033 14be 04ed ddbd
00000170: b668 abbc f58f 09be 2468 49be b2ec 48be
00000180: 4fff 503c b3ca 80bc b25c 983a 178f 063d
00000190: 3633 80bc 0416 ad3c e5f7 183d 4b0b 2e3e
000001a0: 4b9e 8c3d d688 c63d d153 e83d 60b9 aabd
000001b0: cbc5 d6bd cbc5 c63d 09bd 193e 6061 d83d
000001c0: f743 993d c377 0cbd 8901 70bc 9c4d 03bc
000001d0: 25aa 12be 792d a03d a9dc 2c3d ccb2 dabd
000001e0: 2327 fbbc 24d8 c8bc 1f75 333d bdc3 893d
000001f0: 956f 653d 84c6 5dbd fe3e a3bd e616 a5bd
00000200: bf45 133d 2f75 01be 57d2 ddbc cccd ddbd
00000210: 735f 87bd 7d82 1e3e 64ab a3ba 3e7c 43be
00000220: 1b9f 1ebd 06b5 66bd e21d f9bd e663 52be
00000230: da01 3cbe 02ba 13be 8e03 ffbd 3fd0 60bd
00000240: 63c7 40bd 9385 3a3d 315f 9cbd ff30 8dbc
00000250: 8bba 8cbd 2dc2 fdbc e0c9 e6bc 00a5 08bd
00000260: 9457 b2bc 3c80 343d bd93 5cbd fc08 f13c
00000270: e07b 4cbd ed96 56bd 32a5 fbbc d326 0ebd
00000280: 11e1 33bc 4c8b aebd 69ce f33c e3be bf3c
00000290: 3f13 a1bd 4d11 1a3d 30ef c13c 168a 973c
000002a0: 30f8 6abd 177c 3ebd bcbf 143b 989c 573d
000002b0: d6d1 19bd f744 373d 96f6 0abd d491 86bb
000002c0: 1d8a d6bd ae8e 75bc 69da 4bbd 1151 873c
000002d0: 1722 ac3b 2c05 babc 5256 66bd 4cd8 cdbc
000002e0: 5bf3 83bd fa67 a1bd 78b7 15bd c385 6d3d
000002f0: f5cb 773d 5b4a 443b a608 633d 4c38 42bd
00000300: 241e 9fbd 31a6 393d bccf 9fbc 43fc a6bd
00000310: 24f3 51bd 7d78 143c bdec 9ebd 79a6 afbd
00000320: dbbe 6d3d 02d2 b73c 675a 2fbd 6e1f 6dbd
00000330: 896b 92bc 68e2 2d3d eac6 4abb a713 623c
00000340: 6e1a a4bd edab 02bc 2c1f 2c3c 8090 abbd
00000350: 5404 8bbd 4569 86bd 73de 5c3c c3de 8abd
00000360: cffd bc3c 28c3 a03b 3d6e 81bd 613d b8bc
00000370: e853 54bc a88a 803d bd0f 273b 490f 00bd
00000380: 7337 67bd eca3 413d 7e32 43bd ecb4 b03c
00000390: 8ae1 483d 78fd 61bd ed7d 863d 6087 2a3d
000003a0: e664 7bbd a044 25bc 9438 d53c 2e0d 1c3b
000003b0: 8a53 8bbd 5155 2d3d 00b9 01bb df00 22bd
000003c0: 2eba 5abd 77c6 813c 0aa3 723d c450 4fbc
000003d0: bf0e 173b 0931 a3bd e3fe 003c bb10 a1bd
000003e0: 09ce abbd 52ec 9ebd 6e86 c7bc 3082 30bd
000003f0: 9e02 65bd 239f 9abc 027e 00bc cd93 773c
-0.083458915 -0.1387438 -0.08562302 0.21573482 -0.09950863 0.038904693 0.21851556 -0.062096413
0.11760158 -0.071948685 -0.049936097 -0.07509685 0.057798907 -0.037138954 0.061776124 -0.06536153
0.026529795 -0.0456208 -0.12523645 -0.15389363 0.035530787 0.04905335 -0.17764662 -0.036935225
0.08477907 0.0092356885 -0.051002495 -0.060470734 -0.029165866 -0.094812855 0.055582985 -0.010043582
-0.06656379 0.20397118 -0.04966913 0.008494267 0.03221393 0.033934228 0.16227576 -0.06487446
0.04521876 0.06625935 -0.090814 -0.07822777 -0.035642345 0.09951518 0.0070859003 -0.042140312
0.04412295 -0.0011236293 -0.0024221898 -0.09934544 0.06530921 -0.054353394 -0.11070043 0.021089716
-0.013829622 -0.04568788 0.011637607 0.089877464 0.0357404 -0.098801956 0.084549956 -0.06634937
-0.17897004 -0.13135988 -0.072082184 0.044306856 -0.10051181 0.14357032 -0.1081813 0.031631574
-0.093539774 -0.15257509 -0.028290823 -0.09287072 -0.0752913 -0.18137337 0.055307787 -0.012000533
-0.01610479 -0.059296343 0.015840314 0.06139978 -0.07827928 0.042086788 0.019983985 0.016621996
0.042049028 -0.009772398 -0.14472938 -0.10836223 -0.020923954 -0.13433821 -0.19668633 -0.19621542
0.012756183 -0.015721655 0.0011624305 0.032851305 -0.01564942 0.021128662 0.037345786 0.16996495
0.068661295 0.09694068 0.11344112 -0.08336139 -0.10486945 0.09705695 0.15013517 0.10565448
0.074836664 -0.0342939 -0.0146488035 -0.008014109 -0.14322717 0.07821173 0.042202625 -0.10678634
-0.03065831 -0.024517126 0.043812867 0.06726787 0.056014616 -0.054144397 -0.07970999 -0.08061008
0.035955187 -0.12642358 -0.027077837 -0.10830268 -0.06610002 0.15479465 -0.0012486991 -0.19090363
-0.038725954 -0.05632498 -0.12163903 -0.2054592 -0.18360081 -0.14426425 -0.1245185 -0.0548861
-0.04706515 0.045537543 -0.07635344 -0.017235277 -0.06871518 -0.03097638 -0.028172433 -0.03336048
-0.021770276 0.044067606 -0.05385183 0.02942323 -0.049922824 -0.052390028 -0.03071842 -0.034704994
-0.010978953 -0.085226625 0.02976151 0.023406452 -0.07864999 0.037614156 0.023673624 0.018498462
-0.057365596 -0.04650506 0.002269729 0.052639574 -0.03755363 0.044743504 -0.03392657 -0.0041067395
-0.10475562 -0.014987631 -0.04976884 0.016518148 0.0052530873 -0.022707544 -0.056234665 -0.025127552
-0.06442901 -0.0788116 -0.036551923 0.057988893 0.060497243 0.0029951546 0.05542817 -0.04741697
-0.07769421 0.045324508 -0.019508235 -0.08153584 -0.051257268 0.00906193 -0.07759998 -0.08576674
0.058043342 0.022439007 -0.042810824 -0.0578913 -0.017873542 0.042452246 -0.0030941316 0.013798631
-0.080128536 -0.007975561 0.010505479 -0.083771706 -0.06787935 -0.06563047 0.01348077 -0.0678077
0.023070244 0.004906077 -0.063198544 -0.022490205 -0.012959458 0.062764466 0.0025491558 -0.031264577
-0.056449365 0.04727547 -0.047655575 0.021570645 0.049043216 -0.055173367 0.06566987 0.04163301
-0.06137552 -0.010087162 0.026027955 0.0023811567 -0.06803043 0.042317692 -0.0019794106 -0.039551612
-0.05340021 0.015841706 0.059237517 -0.012653533 0.002304956 -0.07968337 0.00787327 -0.07864519
-0.083889075 -0.07759918 -0.024356093 -0.043092906 -0.0559107 -0.01887471 -0.007842543 0.015110922

conv2.0.bias f4 [32]
00000000: 1792 6f3d 2322 bebd 4d21 713d 848f febc
00000010: 87db 3f3d 8e32 023d 3bfb 11be 44a3 6ebc
00000020: 13dc 2abd da19 ffbd 10f3 3cbd 451a 153d
00000030: b8c5 043a 0490 403a d02e ecbb e208 d23c
00000040: cf45 703d a989 39bb aee2 9a3c 9c81 6f3d
00000050: 7d6f c7bc dbfb 85bc c048 733d 5d91 ef3c
00000060: dc09 363d 53a1 02be 2f9c 35bc d42e e9bd
00000070: 115a 983d ed0a d13c 25e6 62bc 039a 58bd
0.05848893 -0.09283855 0.05886965 -0.031074293 0.046840217 0.031786494 -0.14255993 -0.014565293
-0.041713785 -0.12456103 -0.04613024 0.036402006 0.0005064863 0.0007345679 -0.007207729 0.025639001
0.058660325 -0.0028310812 0.018906917 0.058473215 -0.024345154 -0.016355446 0.05939555 0.02924412
0.044442996 -0.12756853 -0.0110846 -0.11385885 0.07439054 0.025517905 -0.013848816 -0.052881252

linear.weight f4 [14, 10368]
00000000: ab99 023d 2d79 58bd 9c10 a1bd e039 afbd
00000010: 0ed2 66bd a50a 34bd 4dd5 6b3d 72b6 8f3c
00000020: 6410 5cbc 9b28 6eba 77c9 fbbc 239d 3abd
00000030: c0f8 52bd 3672 7ebd a526 19bd 1d95 09bd
00000040: cc96 7fbc ee8a f6bc 0c47 2ebd 3225 14bd
00000050: bb31 81bc 3cd3 8dbd 2149 06bc dfe1 75bd
00000060: 82ac a1bd 46fd 69bd 80ec 42bd 4401 15bc
00000070: b432 c1bc 8b15 f7bc f176 77bc 1660 42bd
00000080: 7cb3 d4bc e0fc feba 833c 9bbd fd6c 363c
00000090: 424c 0f3b 5e8d 513d 502d 0cbe 43fb dbbc
000000a0: cc16 3a3d 4249 f03d 570b b93d 3325 463d
000000b0: b29c e1bc 5903 b53d 2891 953d a9cd 443d
000000c0: dda5 9c3d 9d95 a53d 39d9 903d 0532 94bd
000000d0: 0f0d 89bc 1d11 003d f845 d53d bd87 52bd
000000e0: 5e57 ce3b 307b 70bb c77e 1ebd 2619 953d
000000f0: d521 3ebd 51af 6fbd ef2c 65bd 07d0 43be
00000100: 1e8c 43be d5ef 79be 0250 13be 2f6e 83be
00000110: 1d68 babd 05c1 57bd 1f0e 4bbe cd1d c4bb
00000120: de61 cdbd 5735 eb3b 7abe 01be 9e9a 29be
00000130: 4351 043d 62d3 813d 92b7 f93d 4065 38bd
00000140: a211 8c3d 5d04 1b3e 55de 123e 4e62 a4bb
00000150: 2e20 793d 4538 ed3d 3387 cd3b 9562 e53d
00000160: 4466 8b3d 92c4 813d 4235 b73c baa8 153d
00000170: 6f28 123d d96f ad3c 1f49 963d 8dc4 53bd
00000180: df66 cbbb d0aa d73c 7629 17bc 4c84 00bd
00000190: b80a 16bc d881 8abd 111b 01bd 7d44 e63d
000001a0: 9f47 1a3d fdb0 47be 3f08 f8bd 6569 c4bc
000001b0: d2d2 05be 3d5c e2bd a76e 5abd d116 9cbc
000001c0: c024 45bb 446e 053d a36a c9bd a102 9f3c
000001d0: a94a 5c3d 1bf3 6a3d 91e6 c03d 149e 913d
000001e0: f7d7 e43d e17d 823d c936 66bc ef30 84bd
000001f0: 9d8d 0cbe b4c6 bebb e226 f13c 9657 7cbd
00000200: e679 f23c 74d4 483d ac6a 98bd 3e18 dcbb
00000210: 2596 05bd bf43 44bc fcca 083b 66f0 82bd
00000220: 57d6 823d 79bb 823c fe5b 863b 28fd ccbd
00000230: 41c1 c73b aa8b af3d a047 8cbd f3a3 6ebd
00000240: ba81 babd 2841 983d ed6f 473d 7378 68bd
00000250: f404 94bc d49a 043d 9c84 923c 12e9 983d
00000260: 324a af3c 49d7 3f3b 170b a93d a64e 373d
00000270: 02f9 813d 9614 55bc b3f8 a43c 8c67 39bd
00000280: ee1e 3cbd 6cb3 a33c f613 383d 2307 17bc
00000290: eeee 293c 7736 f83c 0454 2bbd 9aed 013d
000002a0: 4311 cf3c 98f4 643b 99ad a73d fdf0 213d
000002b0: c1c9 5dbd 3e23 f73b 4685 dbbc bd44 dc3c
000002c0: 40e6 24bc 5e34 47bb 549b 333c d6dc 5b3d
000002d0: 4d72 ccbb 4789 9fbc fc5f a73c bc51 0abd
000002e0: 93aa a5bc 863c 303d c94a 2d3e e45b ad3c
000002f0: 6098 cf3c b3b0 21bd 277f 05bb fffd 7dbd
00000300: 9df9 efbc 2987 c53c ad43 1fbd 1cab b4bd
00000310: 87b2 01be bdb4 25bc a881 60bd 02e7 06be
00000320: 697b ccbd 68a0 23be 1d70 54be 76c1 0cbc
00000330: aa73 d53c 74a1 193d f8fc 733b 556a d73b
00000340: 36a3 1fbd 90a3 3f3d 2592 0c3d 95d6 4c3d
00000350: a760 323d 6cfb ac39 2063 55bd 3e90 7c3d
00000360: 4632 debe 77cb 9fbe 2a90 dfbd 01c2 7bbc
00000370: 5ef4 403d 5184 b5bb e71e e6bc 58ea bcbc
00000380: 106b 0ebd 59bf 5ebd 9f1f 86bc 94d4 a0ba
00000390: fe8a 663c 9c99 173d 1a13 33bb 80e6 eabc
000003a0: e918 4e3b 759a e33c 9eb3 ac3d 4923 a23d
000003b0: be9c e13c 0f8d 3b3d 0432 8c3d 1176 0a3d
000003c0: ac62 863d 6d3d 933d 15b7 d93c 8bf4 8b3d
000003d0: d0bf aa3d 87d4 5c3d c7c8 4a3d 7a23 553d
000003e0: c8a3 943d bd8a db3d ad0e 053e 37cc ccbc
000003f0: aed6 203e 8eb5 d53d 4a11 913d 7992 453e
0.03188483 -0.052849937 -0.07864496 -0.08555961 -0.056352668 -0.043955464 0.057576466 0.017543051
-0.013431642 -0.000908503 -0.030735714 -0.045560014 -0.051506758 -0.06212064 -0.03739037 -0.03358947
-0.015599918 -0.030095544 -0.042548224 -0.036168285 -0.015770784 -0.069250554 -0.008196146 -0.06002986
-0.078942314 -0.057126306 -0.047588825 -0.00909454 -0.023583747 -0.03016164 -0.015104041 -0.047454916
-0.025964491 -0.0019454025 -0.07579901 0.011134383 0.0021865522 0.05116021 -0.1368916 -0.02685321
0.045431897 0.11732723 0.09035366 0.04837532 -0.027540538 0.08838529 0.07303077 0.048047695
0.076488234 0.08085177 0.07072682 -0.07236103 -0.01672986 0.03126632 0.10413736 -0.05139898
0.006297036 -0.003669452 -0.038695123 0.07280187 -0.046418983 -0.058516804 -0.055951055 -0.19122325
-0.19096419 -0.24407895 -0.1438599 -0.2567 -0.09101889 -0.052674312 -0.19829606 -0.005984998
-0.10028432 0.0071779895 -0.12670317 -0.16562888 0.03230406 0.06339146 0.121932164 -0.045018435
0.06839301 0.15138383 0.14342625 -0.0050166016 0.060821705 0.11582998 0.0062722205 0.11200444
0.06806615 0.06336321 0.022364262 0.036537863 0.03568309 0.021171497 0.073381655 -0.051701117
-0.0062073315 0.026326567 -0.009226194 -0.031376168 -0.009157829 -0.06763047 -0.031519953 0.11243532
0.03766596 -0.1950111 -0.12110948 -0.023976037 -0.13068703 -0.11052749 -0.053328183 -0.019053848
-0.003008172 0.03257586 -0.098347925 0.019410433 0.05378214 0.05736075 0.09418977 0.07110229
0.111740045 0.06371666 -0.014051148 -0.06454646 -0.13725896 -0.005822027 0.029437486 -0.061606966
0.029599141 0.049030736 -0.07442221 -0.006716757 -0.032613892 -0.011979043 0.0020872941 -0.063935086
0.06388538 0.015958535 0.004100322 -0.10009223 0.0060960357 0.08571561 -0.06849599 -0.058261823
-0.09106775 0.074343026 0.048690725 -0.056755494 -0.018068768 0.032374218 0.017885499 0.0746633
0.021397684 0.0029272607 0.08254068 0.04475274 0.063463226 -0.013005396 0.02013812 -0.045264766
-0.045927934 0.019983016 0.04494091 -0.00921801 0.010371907 0.030299408 -0.04182817 0.031720735
0.025276786 0.0034935828 0.08187408 0.039536465 -0.054147486 0.007542043 -0.026796948 0.026888246
-0.0100646615 -0.0030396204 0.010962326 0.053677402 -0.0062392117 -0.019474639 0.020431511 -0.033769354
-0.020222938 0.04302647 0.1692306 0.02116198 0.025341213 -0.039475154 -0.0020369978 -0.062009808
-0.02929383 0.024112301 -0.0388829 -0.08821699 -0.12665759 -0.010113892 -0.05481115 -0.1317406
-0.09984476 -0.15979159 -0.20745893 -0.008591047 0.02605613 0.03750749 0.0037229639 0.006573955
-0.03897401 0.046786845 0.03431906 0.05000933 0.043549206 0.0003299372 -0.052096486 0.061660998
-0.4339773 -0.3120992 -0.10916169 -0.015366078 0.047108047 -0.005539455 -0.028090907 -0.023060963
-0.03477007 -0.054381702 -0.0163725 -0.0012270384 0.014071224 0.037011728 -0.0027324618 -0.028674364
0.0031447953 0.027783612 0.08432697 0.07916886 0.02754056 0.04578882 0.06845477 0.033804003
0.06561789 0.071894504 0.026576558 0.06833752 0.083373666 0.05391362 0.049507882 0.052035786
0.07257801 0.107198216 0.1299388 -0.024999721 0.15706894 0.104350194 0.07083376 0.19294156

linear.bias f4 [14]
00000000: 2228 7bbc 5d9d 7bbc 3c8e 46bc 32c2 2dbd
00000010: e358 593d ad3c c93a 6533 a93c 3127 fdbb
00000020: e567 abbc 46ea 8dbc 14a9 b43a 0f41 a1bc
00000030: 3185 40bc 71bd 22bd
-0.015329393 -0.015357343 -0.012118872 -0.042421527 0.053063285 0.0015353166 0.02065439 -0.0077256192
-0.020923564 -0.017323624 0.0013783299 -0.019684343 -0.011750505 -0.039731447
